base/model/model.pth (torch, 283261 bytes, 6 tensors)

linear1.weight f4 [256, 12]
0	0x3e2d234e	0.16907999
1	0xbdfcb04a	-0.12338312
2	0x3e8ea682	0.2786141
3	0xbe4be27e	-0.19910619
4	0xbe0f1239	-0.13971795
5	0xbe77acd4	-0.24187022
6	0xbdebd651	-0.11515487
7	0xbe087f10	-0.1332972
8	0x3e750006	0.2392579
9	0xbe8e06f9	-0.27739695
10	0xbdf07395	-0.117407955
11	0xbc0e0b20	-0.008669645
12	0x3e47caa6	0.19510898
13	0x3d9af9d8	0.07567185
14	0xbe872931	-0.26398614
15	0xbe232503	-0.15932088
16	0x3e810ff7	0.25207493
17	0x3e5656c3	0.20931534
18	0xbe391daf	-0.1807773
19	0xbd1c3d89	-0.038144622
20	0xbdaf45df	-0.08558249
21	0x3e1340e3	0.14380221
22	0x3d56141a	0.052265264
23	0x3e2758ab	0.16342418
24	0x3e934b8a	0.2876857
25	0x3e2cc82a	0.16873232
26	0xbdc7d32e	-0.09757076
27	0x3e635b3c	0.22202772
28	0x3d8e7e02	0.06957628
29	0x3e94e0fe	0.29077905
30	0x3e151a6e	0.14560863
31	0x3e581d49	0.21104921
32	0x3d533e88	0.051573306
33	0x3e8ad902	0.2711869
34	0xbdca883f	-0.09889268
35	0xbe8b89f4	-0.27253687
36	0xbdfb513e	-0.12271355
37	0x3dec1dd4	0.11529127
38	0xbd045370	-0.032306135
39	0xbe2ad998	-0.16684568
40	0x3e3a2606	0.18178567
41	0x3e577ee1	0.21044494
42	0xbe369508	-0.17830288
43	0x3e46ff62	0.19433358
44	0xbbe9ff97	-0.0071410644
45	0x3e5e94fe	0.21736524
46	0xbe754d3e	-0.23955247
47	0xbe55bbd6	-0.20872435
48	0xbccc4d50	-0.02493921
49	0x3e8d607a	0.27612668
50	0x3db56da0	0.088588
51	0x3dbfac3c	0.09359023
52	0xbda3503f	-0.0797429
53	0xbe758f06	-0.2398034
54	0x3d18a2cd	0.037264634
55	0xbe43ad04	-0.19108969
56	0x3cefcb1e	0.029271659
57	0x3e63b63a	0.22237483
58	0xbdd201eb	-0.10254272
59	0xbd1eff4b	-0.038817685
60	0xbc286d20	-0.010279924
61	0xbe6e6408	-0.23280346
62	0x3e8dc6f0	0.2769084
63	0x3e756610	0.23964715
64	0xbabb6900	-0.001429826
65	0xbca6a5e0	-0.020342767
66	0xbd8aa86a	-0.06770404
67	0xbd9e8e28	-0.07741958
68	0x3dbe2c38	0.09285778
69	0x3e583792	0.21114948
70	0xbe5e1698	-0.21688306
71	0xbe8e49be	-0.27790636
72	0xbe6320eb	-0.22180526
73	0x3d56fba0	0.052486062
74	0x3ccdb220	0.02510935
75	0xbdb0205a	-0.085999206
76	0x3d348ed9	0.044081543
77	0x3d8b94f9	0.06815524
78	0xbb8eab6d	-0.0043539316
79	0xbe8d0bdb	-0.27548108
80	0xbd171dc2	-0.036893614
81	0xbdcda48f	-0.10041153
82	0xbd524bcc	-0.051341817
83	0xbccbd03d	-0.02487957
84	0xbe582e1c	-0.2111134
85	0x3e8ea7da	0.27862436
86	0x3d192368	0.03738728
87	0x3c121d20	0.008918077
88	0x3c61e879	0.013788336
89	0x3e83cdad	0.25742856
90	0x3e8e6a9b	0.2781571
91	0xbc85e8ff	-0.016346453
92	0xba4d27b9	-0.00078260485
93	0xbe368d53	-0.17827348
94	0x3d8453a8	0.06461269
95	0xbcd33357	-0.025781317
96	0x3c608000	0.013702393
97	0x3e522f9a	0.20525971
98	0x3e939f74	0.2883259
99	0xbdaa2a28	-0.08308822
100	0x3e1f0ca5	0.15532167
101	0x3d98686c	0.07441792
102	0x3e0ed7e9	0.1394955
103	0xbd482000	-0.048858643
104	0xbe827016	-0.2547614
105	0xbe902ad5	-0.28157678
106	0x3e02e7cf	0.1278374
107	0xbe418cda	-0.18901387
108	0x3e0c3b3e	0.13694474
109	0xbe16101a	-0.1465458
110	0x3e86a9c2	0.2630139
111	0x3e45a538	0.19301307
112	0x3e1ce884	0.15323073
113	0xbe7cecd6	-0.2469972
114	0xbd333e76	-0.04376074
115	0xbe4e4d9d	-0.20146795
116	0xbe6c3e43	-0.23070626
117	0x3d73496c	0.059396192
118	0x3d7a3faa	0.06109587
119	0xbe88885d	-0.26666537
120	0xbe520712	-0.2051051
121	0x3e8a4a98	0.27010036
122	0xbe4a9195	-0.19782098
123	0x3e8f6f56	0.2801463
124	0xbcb7bb0c	-0.022428058
125	0xbe69e25a	-0.22840253
126	0xbe0ed6b0	-0.13949084
127	0x3e8ccec1	0.2750149
128	0x3df782c3	0.12085488
129	0xbe2a9c14	-0.16661102
130	0xbdcc45ff	-0.09974288
131	0xbe7e0f2a	-0.24810472
132	0x3e3e64fa	0.18593207
133	0xbda98eac	-0.082791656
134	0xbe12a3c2	-0.14320281
135	0x3e592f64	0.21209484
136	0x3e536899	0.2064537
137	0x3d74463e	0.0596373
138	0xbd2dcf8d	-0.042434264
139	0x3d8be360	0.06830478
140	0x3dec73d7	0.11545532
141	0x3e1f4563	0.15553813
142	0x3dedfb61	0.11620212
143	0x3e135b48	0.1439029
144	0xbda47b66	-0.08031349
145	0x3c30cca0	0.010790974
146	0x3e7d8ab8	0.24759948
147	0xbe4a6238	-0.1976403
148	0x3e945b46	0.28975886
149	0x3dd38620	0.10328317
150	0x3e335b70	0.1751535
151	0x3d0c9b6d	0.034327913
152	0x3e1c02f0	0.15235496
153	0xbe516bfe	-0.20451352
154	0xbdb4917c	-0.088168114
155	0x3e0eb280	0.1393528
156	0xbe88d891	-0.26727727
157	0x3e571824	0.21005303
158	0x3de50118	0.11181849
159	0x3e232f96	0.15936121
160	0xbd8dc148	-0.06921631
161	0xbd51404c	-0.05108671
162	0xbce89f90	-0.028396398
163	0xbe230bb3	-0.15922432
164	0x3e3ac498	0.18239057
165	0xbe78da3c	-0.24302
166	0xbe038fa8	-0.1284777
167	0xbe2b3165	-0.16718061
168	0x3d5d6db0	0.054059684
169	0x3e553f7e	0.20825002
170	0x3dc3a7c8	0.09553486
171	0xbdf788f4	-0.120866686
172	0xbe00ce91	-0.12578799
173	0xbe5f2d05	-0.21794517
174	0xbe6c9e28	-0.23107207
175	0xbd645d8b	-0.055753272
176	0x3e8552f2	0.26039845
177	0x3e8b09cb	0.2715591
178	0x3e2cc67c	0.16872591
179	0x3e4592d4	0.19294292
180	0x3e3406c6	0.17580709
181	0x3e2d86dc	0.16945976
182	0x3def1bc8	0.11675221
183	0x3df4dea4	0.11956528
184	0x3d003a48	0.03130558
185	0xbdb0dfa6	-0.086364076
186	0x3c629560	0.013829559
187	0x3e74ab33	0.23893432
188	0xbdd899f5	-0.1057624
189	0xbe1b5f37	-0.1517304
190	0x3de7f3ee	0.11325823
191	0xbe8c7328	-0.27431607
192	0xbe4fecc1	-0.20305158
193	0x3da09f9c	0.07842943
194	0x3db0bdfc	0.08629987
195	0xbd3d9edc	-0.04629408
196	0xbe8d199e	-0.27558607
197	0x3ce50a47	0.027959002
198	0xbe2758fa	-0.16342536
199	0xbe574395	-0.21021874
200	0xbdb06bcf	-0.08614313
201	0x3d73949a	0.05946789
202	0xbd012cbc	-0.031536803
203	0x3e6ceef0	0.23138022
204	0xbe69509c	-0.22784656
205	0x3d0e2048	0.034698755
206	0x3d7d5648	0.061849862
207	0xbe4aef60	-0.19817877
208	0xbd17d18a	-0.037065066
209	0x3be76a6b	0.0070622466
210	0xbd047478	-0.032337636
211	0xbe30f88c	-0.17282313
212	0xbde3e0b0	-0.1112684
213	0xbe8c0a51	-0.2735162
214	0xbd045882	-0.03231097
215	0xbe8e3f99	-0.27782896
216	0x3d678f38	0.05653307
217	0x3e08c56a	0.13356557
218	0xbdc6dbce	-0.09709893
219	0x3e4ec0f4	0.20190793
220	0xbdc05728	-0.09391624
221	0x3dd588b8	0.10426468
222	0x3e2c36ba	0.16817752
223	0x3e7dbee4	0.2477985
224	0xbe595d0f	-0.21226905
225	0x3e6de87d	0.23233218
226	0x3db200ae	0.08691536
227	0x3e443f3a	0.19164744
228	0x3c840840	0.016117215
229	0x3e31d4d6	0.17366347
230	0xbe90eec7	-0.28307173
231	0x3bb51980	0.0055267215
232	0xbe6241ef	-0.22095464
233	0xbd859ea6	-0.065244004
234	0x3cf4eb49	0.029897349
235	0x3ced6958	0.028980896
236	0x3e224bc6	0.15849218
237	0xbe60a788	-0.21938908
238	0x3e308e5c	0.17241806
239	0x3e28af50	0.16473126
240	0xbe45d4ae	-0.19319412
241	0x3d3dc888	0.04633382
242	0xbe8ba491	-0.27273992
243	0x3e46cfdc	0.1941523
244	0xbe28de4d	-0.16491051
245	0x3e87c174	0.2651478
246	0xbe7a4c38	-0.24443138
247	0xbde75b62	-0.11296727
248	0x3d563da1	0.052304868
249	0xbdc1dd54	-0.09466043
250	0x3e27ef63	0.16399913
251	0x3ca33080	0.019920588
252	0x3e5702a4	0.20997101
253	0xbd45047c	-0.04809998
254	0x3e5c1ea4	0.21496063
255	0xbd92d2c4	-0.071691066

linear1.bias f4 [256]
0	0x3de9491b	0.11390897
1	0x3e176873	0.14785938
2	0xbe88122e	-0.2657637
3	0x3e6bb7a4	0.23019272
4	0x3e6a1ddb	0.22862951
5	0xbe854a88	-0.26033425
6	0x3e93bff9	0.288574
7	0x3e546634	0.20742112
8	0xbce69ff7	-0.028152449
9	0x3e8b32a4	0.27187073
10	0x3e93c6ba	0.28862554
11	0x3e22faa4	0.15915924
12	0xbd118efc	-0.03553675
13	0xbe5beefb	-0.21477883
14	0x3e348043	0.17627053
15	0xbdd1699f	-0.10225224
16	0x3e265705	0.16244133
17	0x3e80d24e	0.2516045
18	0x3e9231ce	0.28553623
19	0x3e5fd2e8	0.21857798
20	0xbe96791a	-0.29389268
21	0xbe85522f	-0.26039264
22	0xbe004f67	-0.1253029
23	0x3dd4c188	0.10388476
24	0xbddd8292	-0.1081592
25	0xbe6c9251	-0.2310269
26	0xbdf270e2	-0.11837937
27	0xbe851eb3	-0.25999984
28	0x3e60dbf2	0.21958902
29	0x3e21793a	0.157689
30	0x3d4ce0ae	0.05001896
31	0x3e50de8a	0.20397392
32	0xbe739fe6	-0.23791465
33	0x3d6bbab2	0.057551093
34	0x3c89fd71	0.016844483
35	0x3e10a704	0.14126211
36	0xbda6c155	-0.08142344
37	0xbdf2b348	-0.118506014
38	0xbd3c8276	-0.046022855
39	0x3dac0478	0.0839929
40	0x3e7a228f	0.24427246
41	0x3e0a2742	0.13491538
42	0x3e816e05	0.2527925
43	0x3d85e878	0.065384805
44	0x3e6cfd5c	0.23143524
45	0x3e3318e2	0.17489961
46	0x3df16592	0.11786951
47	0x3e465c67	0.19371186
48	0xbe876234	-0.2644211
49	0xbd305d2d	-0.04305761
50	0x3e818a7b	0.25300965
51	0xbdf1ae2d	-0.118007995
52	0xbcf3e50e	-0.029772308
53	0xbd2e51aa	-0.04255835
54	0xbe878fae	-0.26476806
55	0xbe695795	-0.22787316
56	0x3db3af3b	0.08773657
57	0x3e094e72	0.13408831
58	0xbde0d4b9	-0.109780736
59	0x3e258a2c	0.1616599
60	0xbe964c09	-0.29354885
61	0x3ceb693e	0.028736707
62	0x3e7a9c15	0.24473603
63	0x3e85c21e	0.26124662
64	0x3c8f92ec	0.017526112
65	0xbe608800	-0.2192688
66	0x3e646db8	0.2230748
67	0xbdaa7da8	-0.08324748
68	0xbe8139c1	-0.25239375
69	0x3e86b952	0.26313263
70	0xbe0dd2ee	-0.13849995
71	0xbd3d9d67	-0.04629269
72	0x3da28e00	0.079372406
73	0x3e3357bf	0.17513941
74	0x3daa6cde	0.08321546
75	0xbe7cc78e	-0.24685499
76	0xbe593c87	-0.21214496
77	0x3dcb73ca	0.099341944
78	0xbcc89cce	-0.024488833
79	0xbe696a7b	-0.22794525
80	0xbdd89dc7	-0.10576969
81	0xbdd352d3	-0.10318532
82	0x3e90fa29	0.28315857
83	0xbe19c7aa	-0.15017572
84	0x3e72eed4	0.23723918
85	0x3e2b4a15	0.16727479
86	0x3def05dd	0.1167104
87	0xbe83c597	-0.25736687
88	0x3e8dfc17	0.27731392
89	0xbe7c5dbf	-0.24645136
90	0xbde707d5	-0.11280791
91	0x3cea6738	0.028613672
92	0x3e1aab6f	0.15104459
93	0x3e196358	0.14979303
94	0xbd3fef87	-0.04685929
95	0x3dfc65d6	0.12324111
96	0xbe4a3ec0	-0.197505
97	0xbd2eecad	-0.04270618
98	0x3dbaf6b6	0.091290876
99	0xbe2a0d8c	-0.1660673
100	0xbe882a81	-0.26594928
101	0x3e71109b	0.2354149
102	0xbe4a05cb	-0.19728772
103	0x3d328313	0.043582033
104	0xbd9ced73	-0.07662477
105	0xbd3b3774	-0.04570718
106	0xbe275021	-0.1633916
107	0x3e1eda0c	0.15512866
108	0x3dd95aa3	0.10612991
109	0xbe8e9b9e	-0.27853101
110	0xbe7f530d	-0.24934025
111	0x3ddb11df	0.10696768
112	0xbd5b4b9d	-0.053538907
113	0xbe0a3661	-0.13497306
114	0x3e7d1b58	0.24717462
115	0x3dadf6b4	0.084943205
116	0x3deba139	0.1150536
117	0xbe3a73a2	-0.18208173
118	0x3e59188e	0.21200773
119	0xbcb834f4	-0.022486188
120	0xbe87e1f5	-0.2653958
121	0x3d606dad	0.054792095
122	0xbdefd29f	-0.11710095
123	0x3d121cb6	0.035671912
124	0x3dc79c43	0.097466014
125	0xbe3e1efa	-0.18566504
126	0x3e3424c4	0.1759215
127	0x3e84871e	0.25884336
128	0xbe11754a	-0.14204898
129	0x3e5c91fd	0.21540065
130	0xbdd94a7d	-0.10609911
131	0x3e92e6bc	0.2869166
132	0x3e8ad255	0.27113596
133	0x3d53f6c5	0.05174901
134	0xbe184fd3	-0.148742
135	0xbe55e8a0	-0.2088952
136	0x3dd59d79	0.10430426
137	0xbe18740f	-0.14888023
138	0xbd3b3d45	-0.045712728
139	0xbe290cae	-0.16508743
140	0xbdff1fa9	-0.124572106
141	0x3e62b359	0.22138728
142	0x3e30100f	0.17193626
143	0x3e891a91	0.2677808
144	0xbe7de426	-0.24794063
145	0xbe87545e	-0.26431555
146	0xbe9077f8	-0.2821653
147	0x3e8d737a	0.27627164
148	0xbe04e6f5	-0.12978728
149	0xbe918521	-0.28421882
150	0x3ba0ef4c	0.004911339
151	0x3e5c8567	0.21535264
152	0x3ad4bb22	0.0016230086
153	0xbe247f6a	-0.1606423
154	0x3e5a99e1	0.21347763
155	0xbe8f22a1	-0.27956107
156	0xbd1ddc17	-0.038539972
157	0x3e5d7743	0.21627526
158	0x3da1e7e0	0.07905555
159	0x3e4ea4df	0.20180081
160	0x3ccdba43	0.02511323
161	0x3e7eb556	0.24873862
162	0xbdbf52e1	-0.0934198
163	0x3dc75bf9	0.09734339
164	0xbddb7a8a	-0.10716732
165	0x3e167c37	0.14695822
166	0xbd8da4a1	-0.06916166
167	0x3e2f40d6	0.17114577
168	0xbe80eb74	-0.25179636
169	0x3e84a921	0.25910285
170	0xbe537761	-0.20651008
171	0xbe87864d	-0.2646965
172	0x3dea47f7	0.114395075
173	0x3e367b86	0.17820558
174	0x3e814698	0.2524917
175	0xbe712392	-0.23548725
176	0x3e702bcc	0.23454207
177	0xbc8b16f0	-0.01697871
178	0x3e123b5d	0.14280458
179	0x3df26327	0.11835318
180	0x3e8d7bbc	0.27633464
181	0xbe68e874	-0.22744924
182	0x3e373056	0.17889532
183	0xbddd4e87	-0.108059935
184	0xbe4addcd	-0.19811173
185	0x3e8bf82e	0.27337784
186	0xbe82ec8e	-0.25571102
187	0xbdd3c3c0	-0.10340071
188	0x3e2de50d	0.16981907
189	0xbe744379	-0.23853864
190	0xbd956288	-0.07294184
191	0xbe7a9985	-0.24472626
192	0xbe87168d	-0.26384392
193	0x3dd72c17	0.10506456
194	0xbe85700d	-0.2606205
195	0xbe8eb7de	-0.27874655
196	0xbda9ae4a	-0.08285196
197	0xbd8ea223	-0.06964519
198	0x3e842e3c	0.25816524
199	0xbe572e47	-0.21013747
200	0x3bdc5018	0.006723415
201	0xbd19dab9	-0.037562106
202	0x3e838be2	0.2569266
203	0xbd553411	-0.052051608
204	0x3d234fb3	0.03987093
205	0x3e8ac35f	0.2710218
206	0x3dea0b64	0.11427954
207	0x3e70b856	0.23507819
208	0x3d9e54b3	0.07730999
209	0x3dbbe142	0.09173824
210	0x3e4f3eec	0.20238847
211	0xbe3deac1	-0.18546583
212	0xbe8b21a8	-0.27174115
213	0x3e1e1b38	0.1544007
214	0xbe8c4e8b	-0.27403674
215	0xbe3cc2f6	-0.18433747
216	0x3e90dbd5	0.2829272
217	0xbe83877e	-0.2568931
218	0xbd3145e0	-0.04327953
219	0x3e8d73b9	0.27627352
220	0x3d18b690	0.03728348
221	0x3e607bb5	0.2192219
222	0x3e09ed70	0.13469481
223	0xbe82d6d6	-0.25554532
224	0x3d9b1281	0.07571889
225	0xbdfef735	-0.12449495
226	0xbe22abf5	-0.15885909
227	0xbe59cf68	-0.21270525
228	0xbe193a27	-0.1496359
229	0xbd082ad8	-0.033243984
230	0x3e6347cf	0.22195362
231	0x3e64e598	0.22353208
232	0x3e3acb26	0.18241557
233	0x3df3c5e8	0.11902982
234	0x3d6469af	0.05576485
235	0xbe56d213	-0.20978574
236	0x3d2ea9ea	0.04264251
237	0x3e8f7e4f	0.28026053
238	0x3e6af7bc	0.22946066
239	0x3e5c8f2e	0.21538994
240	0x3e883083	0.26599512
241	0xbe3614fa	-0.1778144
242	0x3e8adc48	0.27121186
243	0xbe035f02	-0.12829211
244	0x3e31f175	0.17377265
245	0xbe2a0829	-0.16604675
246	0x3de13199	0.10995788
247	0xbe2a7538	-0.16646278
248	0xbd1efe6c	-0.038816854
249	0xbded0d73	-0.11574831
250	0x3c991ad7	0.018689556
251	0xbdb27f35	-0.08715669
252	0xbbb9c8ee	-0.0056697046
253	0xbe18912f	-0.14899133
254	0x3d427343	0.047473203
255	0xbe287f50	-0.16454816

linear2.weight f4 [256, 256]
0	0x3d2ec444	0.042667642
1	0xbd9bc26c	-0.076054424
2	0xbcdd43f0	-0.027009934
3	0xbd1fdfd7	-0.03903183
4	0x3d7ffdc9	0.062497888
5	0xbca72e60	-0.020407856
6	0x3d0d7d9e	0.034543626
7	0x3d8b822c	0.06811938
8	0x3c49dc63	0.012320611
9	0xbd897501	-0.0671177
10	0xbd169a39	-0.036768172
11	0xbd5ffc98	-0.05468425
12	0x3d2e51d1	0.042558495
13	0x3ce3a620	0.027789176
14	0x3c05c13c	0.008163746
15	0x3bda753f	0.006666809
16	0xbbdbf7b8	-0.00671288
17	0x3c25d500	0.010121584
18	0x3d1a779b	0.03771172
19	0x3d489840	0.048973322
20	0x3d896a8c	0.06709775
21	0xbb5820af	-0.0032978465
22	0x3cd54b03	0.026036745
23	0x3bb780c0	0.005600065
24	0x3bf30a0b	0.0074169687
25	0xbd5b822d	-0.053590942
26	0xbc1a7408	-0.009427078
27	0x3d53b35e	0.05168473
28	0x3a3597f5	0.00069272454
29	0xbcec7e01	-0.028868677
30	0x3cb10ffc	0.021614067
31	0x3b2f33bf	0.0026733724
32	0xbce2d513	-0.027689492
33	0x3d0127c7	0.031532075
34	0x3d6ab45a	0.057300903
35	0xbd59c723	-0.053168427
36	0xbd053e16	-0.032529913
37	0xbd384062	-0.044983275
38	0x3cc7e6e0	0.024402082
39	0xbd03bdba	-0.03216336
40	0xbd1a4c4c	-0.03767042
41	0xbc19b785	-0.009382133
42	0x3c889f37	0.016677482
43	0x3d74f333	0.059802245
44	0x3d395866	0.04525032
45	0x3c2ad827	0.010427511
46	0xbd4c4699	-0.049872015
47	0x3c349b0c	0.011023294
48	0x3b7b78ae	0.0038371491
49	0xbd2abb94	-0.041682795
50	0x3d550151	0.05200321
51	0xbd7cd833	-0.06172962
52	0xbd7b654a	-0.061375894
53	0x3d339816	0.043846212
54	0x3d44286b	0.047890108
55	0x3cc88dac	0.024481617
56	0xbc8f9657	-0.017527742
57	0xbcddd5af	-0.027079431
58	0xbc0f0794	-0.008729834
59	0xbacbdae2	-0.0015552903
60	0x3aabf700	0.0013119876
61	0x3cca6d10	0.024710208
62	0x3d631da1	0.05544818
63	0x3d09aa18	0.03360948
64	0x3d45ecde	0.048321597
65	0xbd46fccc	-0.04858093
66	0xbc93ee32	-0.018057916
67	0xbc8586f5	-0.016299704
68	0xbd82083d	-0.063492276
69	0xbbf47021	-0.007459656
70	0xbd1c7e12	-0.038206168
71	0x3d13e9e1	0.036111716
72	0x3bcd137d	0.0062584267
73	0x3c2e8533	0.010651874
74	0xbc2f776d	-0.010709626
75	0x3cb5cc2f	0.022192089
76	0xbcd902de	-0.026490625
77	0xbc9e16d5	-0.019297997
78	0x3c622ade	0.013804166
79	0xbd381830	-0.044944942
80	0xbd5ae01e	-0.05343639
81	0xbd649fa2	-0.0558163
82	0x3c5d8b79	0.013522022
83	0xbb5bcc51	-0.003353853
84	0xbcb44800	-0.022006989
85	0x3d783bde	0.06060397
86	0xbd4b72a3	-0.049669873
87	0xbc4b398f	-0.01240386
88	0x3b045edd	0.0020198144
89	0xbd6e3238	-0.05815336
90	0x3c8432df	0.016137538
91	0x3ca3a6be	0.01997697
92	0x3d3d6226	0.04623618
93	0x3cec83cd	0.028871441
94	0xbd4aa1f4	-0.049470857
95	0xbc0ed409	-0.008717545
96	0x3d5cefd8	0.05393967
97	0x3c90dd93	0.01768378
98	0xbd15408c	-0.03643851
99	0xbd97e758	-0.07417172
100	0xbcb578d6	-0.022152346
101	0x3bb5c6fa	0.0055474015
102	0xbd4bae85	-0.04972698
103	0xbcb10bcd	-0.021612072
104	0xbd6f80b9	-0.05847237
105	0xbd01714f	-0.0316022
106	0x3d155f00	0.036467552
107	0xbd3f0217	-0.046632852
108	0x3c390495	0.011292596
109	0xbd47da7d	-0.04879235
110	0x3b6f7393	0.0036537393
111	0x3d391b8d	0.04519229
112	0xbc2ea1b3	-0.010658669
113	0xbd010f8a	-0.03150896
114	0x3d1bbdd8	0.038022846
115	0x3d258b2b	0.040415924
116	0xbd117867	-0.035515215
117	0xbd20efee	-0.039291315
118	0xbcb3a40f	-0.021928815
119	0xbd381178	-0.044938534
120	0x3cbe48a6	0.023228
121	0x3c5a8c11	0.0133390585
122	0x3c8f7fc9	0.017516987
123	0x3d576dd3	0.05259497
124	0x3c5bb295	0.0134092765
125	0x3c579107	0.013157136
126	0x3cb91b78	0.022596106
127	0x3b606c61	0.0034244286
128	0x3c70edd4	0.01470514
129	0x3b6367b9	0.0034699275
130	0xbd3eb7dd	-0.046562064
131	0xbcf11028	-0.02942665
132	0xbd1ca0e8	-0.03823939
133	0x3d657a7d	0.056025017
134	0x3c8d475e	0.017245945
135	0xbc9dc2d0	-0.019257933
136	0x3d0ba505	0.03409292
137	0xbc14ce76	-0.009082427
138	0xbc92af56	-0.017905872
139	0x3a8c35bf	0.001069717
140	0x3d14b318	0.03630361
141	0x3d1bdddd	0.038053382
142	0xbbbb667d	-0.0057190047
143	0x3d7a2d53	0.06107838
144	0x3d8cc907	0.068742804
145	0x3cd3cb44	0.02585376
146	0xbced0010	-0.028930694
147	0x3abb74ba	0.0014301755
148	0xbd42310c	-0.047410056
149	0xbc885ad0	-0.016644865
150	0x3d1f288d	0.03885703
151	0xbc15ca70	-0.009142503
152	0x3d20591e	0.03914749
153	0xbc7dc02c	-0.015487712
154	0xbcbf2c15	-0.02333645
155	0x3cdb9540	0.026804566
156	0x3d1f16e4	0.03884019
157	0x3c5a4d1f	0.013324051
158	0x3ce01864	0.02735538
159	0x3d1e3693	0.038626265
160	0x39389094	0.00017601467
161	0x3bcea95a	0.0063068094
162	0xbc51afa6	-0.0127982255
163	0x3c96fcf0	0.018431157
164	0xbc95cf84	-0.018287428
165	0x3d034ac9	0.032053743
166	0x3c54ed48	0.012996025
167	0xbc449550	-0.0119984895
168	0x3bef8640	0.007309705
169	0xbcce0780	-0.02515006
170	0x3d19071c	0.037360296
171	0xbb2378e6	-0.0024943887
172	0xbd20e5b6	-0.03928157
173	0xbc8e46cc	-0.017367743
174	0x3cd049df	0.02542585
175	0x3c90c1d5	0.017670551
176	0xbd225220	-0.0396291
177	0xba042354	-0.00050406647
178	0x3cc4ec59	0.02403848
179	0x3d0e3199	0.03471527
180	0xbd39d18d	-0.04536586
181	0x3d0d1f61	0.034453753
182	0xbd0dba40	-0.03460145
183	0xbc2d42b7	-0.010574988
184	0xbce48680	-0.027896166
185	0xbd34b852	-0.044121094
186	0x3d271c99	0.040798757
187	0xbce2cdad	-0.027685964
188	0xbcc6c3c8	-0.024263278
189	0x3d3bfca6	0.04589524
190	0x3d843379	0.0645513
191	0xbd035823	-0.032066476
192	0x3d4f33b1	0.050586406
193	0xbd450812	-0.0481034
194	0x3d061b7e	0.032741062
195	0x3d11e4de	0.035618655
196	0xbb0f7be3	-0.002189391
197	0x3d219121	0.039445046
198	0x3b937624	0.0045001674
199	0x3ca8f68d	0.020625377
200	0x3d14c9cc	0.03632526
201	0x3ce964a5	0.028490374
202	0xbd4c0af7	-0.049815144
203	0xbd2372ab	-0.039904278
204	0xbd8e5179	-0.069491334
205	0x3d28d2ec	0.041216776
206	0x3baa4df7	0.0051972824
207	0xbbb21361	-0.005434439
208	0xbd851b9a	-0.06499405
209	0xbaa55030	-0.0012612399
210	0xbc30bec8	-0.010787673
211	0x3d38f08a	0.04515127
212	0xbc0e3320	-0.008679181
213	0xbd3a326f	-0.045458253
214	0xbc7e6b6c	-0.015528541
215	0xbd2cf336	-0.04222413
216	0xbbfcdf7f	-0.0077170725
217	0xbbd8e812	-0.006619462
218	0xbcb5f88f	-0.022213249
219	0xbc8c9dff	-0.017165182
220	0x3c8af2a3	0.016961401
221	0xbd171497	-0.03688487
222	0x3c6cd59b	0.014455224
223	0xbd2bbcd8	-0.041928142
224	0xbb073391	-0.0020630101
225	0xbce5ed76	-0.028067332
226	0xbcd4de70	-0.025984973
227	0x3cb7a274	0.02241633
228	0xbcee3ea4	-0.029082604
229	0x3cc1c3c9	0.023652928
230	0xbd0b0f66	-0.033950232
231	0x3ca3372d	0.01992377
232	0xbd05aee1	-0.03263748
233	0x3d347dce	0.04406529
234	0x3d6422c7	0.05569723
235	0x3d1818c8	0.03713301
236	0xbdab5942	-0.08366634
237	0x3d71d6a2	0.05904258
238	0x3d540af0	0.051768243
239	0xbb8a9530	-0.0042292103
240	0x3d22e912	0.039773054
241	0x3d7a3689	0.061087165
242	0xbbb29dea	-0.0054509537
243	0x3d002afd	0.031290997
244	0x3d240683	0.040045273
245	0x3d221ec4	0.03958012
246	0x3d07ac15	0.033123095
247	0x3c54082c	0.012941401
248	0x3ce1de1c	0.02757173
249	0x3d64c93a	0.055855967
250	0x3d82982c	0.06376681
251	0x3d5591ea	0.052141108
252	0xbd65737f	-0.05601835
253	0x3b1902dc	0.0023347652
254	0x3d91133e	0.07083748
255	0x3c7124ac	0.014718216

linear2.bias f4 [256]
0	0xbc5a3c39	-0.013320022
1	0xbd8fcb86	-0.07021241
2	0xbb65a837	-0.003504289
3	0xbd4e3d76	-0.050351582
4	0x3d1f5108	0.038895637
5	0x3d252207	0.040315654
6	0x3b5ce940	0.0033708364
7	0x3cf08d44	0.029364236
8	0xbcc8fb9c	-0.02453404
9	0x3c6460f4	0.013939131
10	0x3d62c9f3	0.055368375
11	0xbc53b3ad	-0.012921256
12	0x3cc3d2e2	0.023904268
13	0xbd7621be	-0.060090773
14	0x3cc194dd	0.023630554
15	0xbc4a6560	-0.012353271
16	0x3d45b2ce	0.048266225
17	0x3d3dfafc	0.046381935
18	0xbbaba410	-0.0052380636
19	0x3d219a92	0.03945405
20	0xbd3c2fba	-0.045943953
21	0x3d415d5f	0.047208186
22	0x3d3e1c3d	0.04641365
23	0x3c9bafa9	0.01900466
24	0xbd7293c6	-0.05922296
25	0x3c2a02fe	0.01037669
26	0x3d2b18b9	0.041771624
27	0x3d47c11d	0.04876815
28	0xbd29b0a2	-0.041428216
29	0x3cc49bf4	0.024000145
30	0x3d4a3d06	0.049374603
31	0xbcfb3732	-0.030665968
32	0x3d900232	0.07031669
33	0x3d2e8159	0.042603824
34	0x3d312b08	0.04325393
35	0xbd2ed483	-0.042683136
36	0xbcbb8ad9	-0.022893356
37	0xbc5b2810	-0.013376251
38	0xbd61d397	-0.05513343
39	0xbd5dd848	-0.05416134
40	0x3d8cf703	0.06883051
41	0xb9b0b400	-0.00033703446
42	0xbc7c8b38	-0.015414052
43	0x3bd2e4eb	0.0064359806
44	0xbcc6e292	-0.024277959
45	0x3d197a0c	0.03746991
46	0xbbda1f81	-0.0066565876
47	0x3c8c1718	0.017100856
48	0x3c7276aa	0.0147987995
49	0xbcd7dfaf	-0.026351778
50	0xbd17afa8	-0.037032753
51	0x3a4b2cd6	0.00077505165
52	0x3d713cbe	0.05889582
53	0xba46573e	-0.00075661007
54	0x3d15381d	0.036430467
55	0x3cb0cb49	0.021581309
56	0x3d7eb3e5	0.06218328
57	0xbd406d85	-0.046979446
58	0x3cf251ec	0.029580079
59	0xbc625df9	-0.01381635
60	0xbd2d8d08	-0.042370826
61	0x3d9e8644	0.07740453
62	0xbca45a5f	-0.020062624
63	0xbc3c405e	-0.011489956
64	0xbcc9d310	-0.024636775
65	0xbd65bd1d	-0.056088556
66	0xbd33a226	-0.04385581
67	0x3c2ae867	0.010431386
68	0x3bb47362	0.0055069188
69	0xbd2ee2ce	-0.042696767
70	0xbd0a9c86	-0.03384068
71	0x3d41122c	0.04713647
72	0xbc167d3c	-0.009185132
73	0x3d6a3336	0.057177745
74	0x3c4efc78	0.012633435
75	0xbd5dfda8	-0.054196984
76	0xbd4e170f	-0.05031496
77	0xbca13300	-0.019677639
78	0x3d66e63a	0.056371905
79	0xbcf4d12b	-0.029884895
80	0xbce29870	-0.027660578
81	0x3d611a66	0.054956816
82	0x3c8e52ec	0.017373525
83	0xbd0bd9b4	-0.034143165
84	0x3d68f75d	0.05687653
85	0x3d6013e5	0.054706473
86	0xbd5c614a	-0.05380372
87	0x3d42a3d2	0.047519512
88	0x3d0a9233	0.033830833
89	0x3cd885fb	0.026431074
90	0xbced9ffc	-0.02900695
91	0x3c9f07fe	0.01941299
92	0x3c914b8e	0.017736223
93	0xbcc7e7c4	-0.024402507
94	0x3c13d836	0.009023717
95	0xbcfed081	-0.031105282
96	0xbcda2de4	-0.02663321
97	0xbc9d78a0	-0.019222558
98	0x3c0d48f5	0.008623351
99	0xbc1e2563	-0.009652468
100	0xbd55885c	-0.052131996
101	0xbc28a690	-0.010293618
102	0xbbedb520	-0.007254258
103	0x3d30bb1f	0.043147203
104	0xbd8a54aa	-0.0675443
105	0x3cf8901e	0.030342158
106	0xbd48db92	-0.049037524
107	0x3ade3f03	0.0016956035
108	0xbc86ec73	-0.01647017
109	0xbd39187b	-0.045189362
110	0x3d4a63c8	0.049411565
111	0x3d502ade	0.05082213
112	0x3d74fcc2	0.05981136
113	0x3d065e22	0.032804616
114	0xbbb504a8	-0.0055242367
115	0x3c855b17	0.016278787
116	0xbd317ac4	-0.04332997
117	0xbb608380	-0.0034258068
118	0x3c2cb176	0.010540357
119	0xbd0432b7	-0.032274928
120	0xbd0f3334	-0.03496094
121	0xbd288631	-0.0411436
122	0xbd7b38ea	-0.061333574
123	0x3d2aaf5a	0.041671135
124	0xbbebf1e7	-0.007200468
125	0x3da34f57	0.07974117
126	0x3d3a326b	0.04545824
127	0x3c9eee45	0.019400725
128	0xbd3f4cab	-0.046703976
129	0xb9e1101c	-0.00042927347
130	0x3ce7dab0	0.02830252
131	0x3d0501fe	0.032472603
132	0x3c9905b4	0.018679477
133	0x3d58ace9	0.052899275
134	0xbc282f90	-0.010265246
135	0x3cdc1188	0.026863828
136	0x3bffb2b4	0.0078032855
137	0x3cd7c8ff	0.02634096
138	0xbc72e3b8	-0.0148248
139	0xbac0e48e	-0.0014716552
140	0x3d28849f	0.041142102
141	0xbd11e9e6	-0.035623454
142	0x3cd12e5a	0.025534797
143	0xbd3ccea6	-0.046095513
144	0x3ad0f715	0.0015942777
145	0xbd8fcf21	-0.070219286
146	0xbd33930e	-0.043841414
147	0x3cf222d3	0.029557621
148	0x3b6f6127	0.0036526413
149	0xbd8bbf9d	-0.06823657
150	0x3c87c6d8	0.016574308
151	0x3ca61f96	0.020278733
152	0x3d1f8300	0.03894329
153	0x3cc27654	0.023738064
154	0x3d3c8bfc	0.046031937
155	0x3d451490	0.048115313
156	0x3bff9630	0.007799886
157	0x3d5ccd57	0.053906765
158	0xbc7d908d	-0.015476358
159	0x3d107100	0.035264015
160	0x3c33aebe	0.010966955
161	0xbca7ffbf	-0.020507691
162	0x3d00e7ec	0.031471178
163	0x3d2797e9	0.040916357
164	0x3d76de98	0.060270876
165	0xbd4ace29	-0.049513016
166	0x3b0de4cd	0.0021651268
167	0xbc9c55cc	-0.01908388
168	0xbbdff322	-0.0068344036
169	0x3d058e0a	0.032606162
170	0x3ccdc8dc	0.025120191
171	0xbd87240a	-0.06598671
172	0x3d655b74	0.05599542
173	0x3c1cd96c	0.009573322
174	0xbd442c23	-0.047893655
175	0xbacf6840	-0.0015823916
176	0x3c9f1a7d	0.01942181
177	0xbc992c6b	-0.018697938
178	0x3b003233	0.001956117
179	0x3cc6d9a7	0.024273707
180	0x3c063de3	0.008193466
181	0xbc8124a7	-0.015764548
182	0xbad33627	-0.0016114161
183	0xbd803d81	-0.06261731
184	0xbd3ace40	-0.04560685
185	0xbd78039a	-0.06055031
186	0xbd7c6494	-0.061619356
187	0x3d16d915	0.03682812
188	0xbc022a60	-0.007944673
189	0x3d1bfe3c	0.038084254
190	0xbd2aa0d9	-0.041657303
191	0x3d9b16db	0.07572719
192	0xbd03b33b	-0.03215335
193	0xbc134a90	-0.008989945
194	0x3d733211	0.05937392
195	0xbd50fa5d	-0.051020015
196	0xbd1d8e81	-0.03846598
197	0x3d3590b9	0.04432747
198	0x3bb44f10	0.005502589
199	0xbbfcfd68	-0.007720638
200	0xbc94227d	-0.018082852
201	0x3d262a40	0.040567636
202	0xbca1a6e9	-0.01973291
203	0x3d1e6db2	0.038678832
204	0xbd4418a0	-0.047875047
205	0x3cd464eb	0.025927028
206	0x3b6ced80	0.0036152303
207	0xbd855ad0	-0.06511462
208	0x3d0674ac	0.03282611
209	0x3cf42f04	0.029807575
210	0x3d27767d	0.040884484
211	0xbd0e52a4	-0.03474678
212	0x3c49f4d3	0.012326437
213	0xbd4b6c35	-0.04966374
214	0x3d12e1bc	0.03585981
215	0xbd939d8e	-0.072077855
216	0x3d09d828	0.03365341
217	0x3d3783da	0.044803478
218	0xbcc61794	-0.024181165
219	0x3c65f3ad	0.014035148
220	0xbd0a9e8a	-0.0338426
221	0x3d9a6027	0.07537871
222	0x3d2c6040	0.04208398
223	0xbd600a20	-0.054697156
224	0xbd4412c7	-0.04786947
225	0xbd76b172	-0.06022782
226	0x3d22d139	0.03975031
227	0xbd183c10	-0.037166655
228	0x3ce76cfe	0.028250214
229	0x3d256efc	0.040389046
230	0x3d1b649d	0.03793775
231	0xbd73f9dd	-0.05956446
232	0xbca07295	-0.019585887
233	0x3b283f3c	0.0025672456
234	0xbb6fb3f4	-0.0036575766
235	0x3d858fdd	0.0652158
236	0xbd5e4aed	-0.054270674
237	0xbd516111	-0.05111796
238	0x3ca44cca	0.020056147
239	0x3cd8348c	0.026392244
240	0x3d2f3dad	0.042783428
241	0xbd24041e	-0.04004299
242	0xbc5e54ee	-0.0135700535
243	0x3d7629e0	0.06009853
244	0xbd84a5e4	-0.064769536
245	0x3b77da7c	0.0037819436
246	0xbce5393c	-0.027981393
247	0x3ca7ca34	0.02048216
248	0x3d7ce83a	0.061744906
249	0xbd620a34	-0.05518551
250	0x3d124c09	0.035717044
251	0xbd3761cc	-0.044771
252	0xbcbe6156	-0.023239773
253	0xbd1afe46	-0.03784015
254	0x3c9a47b4	0.018833019
255	0x3d656b63	0.056010615

linear3.weight f4 [4, 256]
0	0x3cbb935b	0.022897413
1	0x3ac1b7c0	0.0014779493
2	0x3c0f997f	0.008764624
3	0x3d04a592	0.032384463
4	0xbcc4a71e	-0.024005469
5	0x3c91cf8c	0.017799161
6	0x3d7e5876	0.06209608
7	0xbb5cb600	-0.0033677816
8	0xbceef050	-0.029167324
9	0x3cbdf4c0	0.023187995
10	0xbb278fea	-0.0025567957
11	0x3cc4c029	0.02401741
12	0xbd689bec	-0.056789324
13	0xbd46cb40	-0.048533678
14	0x3d787df3	0.06066699
15	0x3d764a48	0.060129434
16	0xbd1cb05b	-0.038254123
17	0xbcf314ef	-0.029673068
18	0xbc1f8dc8	-0.009738393
19	0xbd16d81e	-0.0368272
20	0x3d6c782a	0.057731785
21	0xbca7b857	-0.020473642
22	0xbd0c4673	-0.034246873
23	0xbbc49d50	-0.0060001984
24	0x3b79e640	0.0038131624
25	0x3c91dab3	0.01780448
26	0xbd50d37f	-0.05098295
27	0xbd2f0440	-0.042728662
28	0xbc495ff4	-0.012290943
29	0xbc4d5080	-0.0125314
30	0x3c90545c	0.01761835
31	0x3c363d58	0.011123024
32	0x3d5a94b4	0.05336447
33	0x3d78e391	0.0607639
34	0xbc21a40c	-0.009865772
35	0xbbd90fc3	-0.0066241934
36	0xbd3b2a7a	-0.045694806
37	0xbd310d10	-0.043225348
38	0x3cabb6bf	0.020961164
39	0x3d2ea12e	0.04263418
40	0x3d12b9e8	0.035821825
41	0xbc797150	-0.01522477
42	0xbd1fecd4	-0.039044216
43	0x3cd28615	0.0256987
44	0x3d190b36	0.037364207
45	0xbaa9a9d7	-0.0012944293
46	0x3d3f9727	0.04677501
47	0xbd040294	-0.03222902
48	0xbc1667a9	-0.009179988
49	0x3d6fe422	0.058567174
50	0xbd445aba	-0.047938086
51	0x3c3c9ac6	0.01151151
52	0x3be0cb5a	0.006860179
53	0xbc18bfb0	-0.009323046
54	0x3c22602f	0.009910627
55	0xbc7911f0	-0.015202031
56	0x3d5fe258	0.054659218
57	0xbd38a133	-0.045075607
58	0x3d918710	0.07105839
59	0x3c9929fc	0.018696778
60	0xbca9df64	-0.020736404
61	0x3d8221b3	0.06354084
62	0xbd49d474	-0.049274877
63	0x3d445f84	0.047942653
64	0x3d362f55	0.044478733
65	0xbd5400a8	-0.05175844
66	0x3d349f82	0.04409743
67	0x3d04c2c9	0.032412324
68	0x3bb18a90	0.0054181293
69	0xbcb82b70	-0.02248165
70	0x3d8244e8	0.06360799
71	0xbb50fea6	-0.0031890064
72	0xbca2098c	-0.019779943
73	0x3cd1e602	0.025622372
74	0x3d055321	0.03254998
75	0x3ce58764	0.02801866
76	0xba455100	-0.00075270236
77	0xbd3d5cb8	-0.046231
78	0x3d2a02e6	0.04150667
79	0x3c4c7c2c	0.012480777
80	0xbd0a0916	-0.03370007
81	0x3d140d9a	0.036145784
82	0x3c378e58	0.011203371
83	0xbd14bafc	-0.036311135
84	0x3d7a8e47	0.061170842
85	0x3cf4f871	0.029903622
86	0x3d14be02	0.036314018
87	0xbd543ac5	-0.05181386
88	0xbc8e503f	-0.017372249
89	0x3b47e11d	0.0030499168
90	0xbd154cfc	-0.03645037
91	0xbc761110	-0.015018716
92	0xbd20154e	-0.039082818
93	0x3bdda4e0	0.0067640394
94	0xbd1a1681	-0.037619118
95	0x3863f000	5.4344535e-05
96	0xbd4bba7e	-0.0497384
97	0x3d081bc6	0.03322961
98	0x3ba35609	0.0049846214
99	0xbba5cee2	-0.0050600627
100	0x3b82d870	0.0039930865
101	0xbc8758ed	-0.016521895
102	0x3c4c9c20	0.012488395
103	0x3d853ec3	0.065061115
104	0x3d3e500a	0.04646305
105	0xbd1cca5c	-0.038278922
106	0xbbc7913b	-0.006090311
107	0x3d07ace4	0.033123866
108	0x3c3a3518	0.011365198
109	0x3d75d0ec	0.060013697
110	0x3d905bde	0.07048772
111	0x3d895513	0.0670568
112	0x3d3ff638	0.046865672
113	0xbca53234	-0.02016554
114	0xbb508391	-0.00318167
115	0xbce2ab75	-0.027669648
116	0x3d9105a5	0.07081155
117	0x3c0388b0	0.008028194
118	0xbd6f5334	-0.058428958
119	0x3d84729d	0.06467173
120	0x3cf1f140	0.029533982
121	0xbd0eb393	-0.034839224
122	0x3cb5bd00	0.022184849
123	0x3b8ba3e0	0.004261479
124	0x3d2955e0	0.041341662
125	0x3d3791bc	0.044816718
126	0x3b11bd0f	0.0022237932
127	0xbb9db823	-0.0048132106
128	0xbc9de928	-0.019276217
129	0x3cb24e31	0.0217658
130	0x3d79d438	0.060993403
131	0xbd3b3c61	-0.04571188
132	0x3d789b26	0.060694836
133	0xbb5de517	-0.0033858472
134	0x3d8a3b2c	0.067495674
135	0x3c4fe5f0	0.012689099
136	0xbd27c22e	-0.04095667
137	0xbbd0375b	-0.006354255
138	0xbd71b0d0	-0.059006512
139	0x3d329856	0.04360231
140	0x3ba15b58	0.004924219
141	0xbc5dc758	-0.013536297
142	0xbaea3b40	-0.0017870441
143	0xbd1d8758	-0.038459152
144	0xbc926113	-0.017868554
145	0x3cbfd3c0	0.0234164
146	0x3d500830	0.05078906
147	0xbadfed00	-0.0017084181
148	0x3d4bfe8e	0.04980331
149	0xba57bc80	-0.0008229688
150	0xba6ddb2f	-0.00090734934
151	0xbcfffac7	-0.03124751
152	0x3cff087a	0.031131972
153	0xbc4c21e8	-0.012459256
154	0x3bc82d69	0.006108929
155	0x3ce83f2b	0.028350433
156	0xbd069cf6	-0.032864533
157	0x3cb0341f	0.021509228
158	0xbd510dae	-0.051038437
159	0xbc2a7665	-0.010404204
160	0x3c65e0b2	0.014030622
161	0xbd2fa5c4	-0.042882696
162	0x3d4517be	0.048118345
163	0xbc93997b	-0.018017521
164	0xbd2f35e8	-0.04277602
165	0x3d00b4dc	0.03142248
166	0x3d7af01c	0.061264142
167	0xbbf381c0	-0.007431239
168	0x3c68709b	0.0141870035
169	0xbd0763fa	-0.03305433
170	0x3d67a278	0.056551427
171	0xbd0e38d2	-0.034722157
172	0xbc7efa7f	-0.015562653
173	0x3ced8687	0.028994812
174	0x3d8cb1a6	0.06869821
175	0xbc89611c	-0.016769938
176	0x3d6edbcd	0.058315087
177	0x3c68e127	0.014213837
178	0xbb50f340	-0.003188327
179	0x3d09a34f	0.03360301
180	0x3d039733	0.032126617
181	0x3d54e8da	0.051979877
182	0x3d62e798	0.055396646
183	0xbbb163d1	-0.0054135104
184	0xbc2a69f8	-0.0104012415
185	0xbc70cad0	-0.014696792
186	0x3d29da74	0.0414681
187	0x3d569d0e	0.052395873
188	0xbc4fa508	-0.012673624
189	0x3cb2ae88	0.021811739
190	0x3d8971e1	0.06711174
191	0x3c96436a	0.018342692
192	0xbb335ce0	-0.002736859
193	0xbc931f84	-0.017959364
194	0xbd3ba470	-0.045811117
195	0x3d1ec9f6	0.038766824
196	0xbd6d495a	-0.05793128
197	0x3d75a388	0.05997041
198	0x3cd274ac	0.0256904
199	0x3bc306a6	0.0059517203
200	0xbd454054	-0.04815705
201	0x3bac3bd0	0.0052561536
202	0xbcc2f69f	-0.023799239
203	0xbc330ecf	-0.010928824
204	0xbd45f9e8	-0.048334032
205	0xbc852358	-0.016252205
206	0xbc568bf3	-0.01309489
207	0xbd4a1cd5	-0.049343903
208	0xbd47b16a	-0.04875318
209	0xbd02cabc	-0.031931624
210	0xbd453448	-0.048145562
211	0x3ccd5650	0.025065571
212	0x3cb2cc08	0.021825805
213	0xbc07ba10	-0.008284107
214	0x3cbd47f8	0.023105606
215	0xbd236fa0	-0.039901376
216	0x3ccb9e59	0.02485578
217	0x3d0d9fa8	0.03457609
218	0x3cc60e94	0.024176873
219	0xbd55436a	-0.052066244
220	0xbcb12420	-0.021623671
221	0x3d5a7d57	0.05334219
222	0x3d6f652c	0.058446094
223	0xbce87acc	-0.028378867
224	0x3d3548b4	0.04425879
225	0xbd13e85e	-0.036110274
226	0xbd45a724	-0.0482551
227	0xbcd9d3a0	-0.026590168
228	0x3d2c58b5	0.042076785
229	0xbc6453aa	-0.013935963
230	0xbd4f7530	-0.050648868
231	0xbc86be78	-0.016448244
232	0xbd31dc30	-0.043422878
233	0xbb516d60	-0.0031956062
234	0xbc69b5e0	-0.014264554
235	0x3c5898ed	0.013220054
236	0xbc9f292c	-0.019428812
237	0x3d112591	0.035436217
238	0x3cc7076c	0.024295531
239	0xbd245df8	-0.040128678
240	0x3ce6d974	0.028179862
241	0x3cbb9fa4	0.022903271
242	0xbc9f6294	-0.019456185
243	0x3c6f3c6b	0.014601807
244	0xbb8899d0	-0.0041687265
245	0x3adb92c0	0.0016752109
246	0xbaa58040	-0.0012626722
247	0xbd3adfac	-0.045623466
248	0x3c45c6f8	0.012071364
249	0xbc584c30	-0.013201758
250	0x3c14a338	0.0090721175
251	0x3ca92757	0.020648642
252	0x3d811ad3	0.063039444
253	0xbc92ded8	-0.017928526
254	0x3b42c12c	0.002971719
255	0x3d33a3f6	0.043857537

linear3.bias f4 [4]
0	0xbc93aa2a	-0.018025476
1	0x3d4677c0	0.048454046
2	0x3d819f5d	0.06329224
3	0x3d8068a8	0.062699616
